mnist_model.pth (torch, 440581 bytes, 6 tensors)

fc1.weight f4 [128, 784]
00000000: a53c babc 20b3 18bd edcf 683b b635 10bc
00000010: 16bd 90bc 5398 bf3c 0295 823c eefb 0bbc
00000020: 8a7a 87bc ebca cabc bd9d d43b 6399 82bb
00000030: 6315 b1bc 7866 19bd 8955 debc 7933 64bb
00000040: 10df 0dbd 816e 8d3c a6b1 b3bc a759 e1bc
00000050: c257 23bd 3603 13bd e32e 603c a2b6 803c
00000060: d595 d6bc 461d 10bd c2f7 8ebc 14eb 2fbd
00000070: 95c1 cf3b 8650 1bbd 174c c4bc 2b7f 5cbc
00000080: c955 c83c c51c 1ebd b620 b53c 879f 1dbd
00000090: 051c 08bd c1dd d03b 5554 c33c 01f5 e93b
000000a0: ed42 a8bb 91d7 dfbc 51d2 22bd bcbf f93c
000000b0: bcf7 ca3c 976f 103c 4814 c23c 9d68 e4bc
000000c0: f3d5 fabc fce3 cc3c ccc8 883c 3afe 21bd
000000d0: a734 b33c 2b91 d8bb 3650 2dbc 743d 26bd
000000e0: 1549 c23c 7b9c bc3c c03c fcbb c0e3 cbbc
000000f0: a07b 45bb 7b31 fdbc 3002 1fbd 86d8 debc
00000100: 5885 313a 9e9d 79bc 90ec 603d 7a73 403c
00000110: dc28 263d e8c3 f73c cfe5 46bb e218 263c
00000120: 561e 543d 04c0 783c 4ae3 263d 771c fa3a
00000130: a1d6 92bc 3027 1f3d 8977 f9bb 1b50 9ebc
00000140: 0500 c23c abc5 00bd d805 8f3c e42d 1ebd
00000150: 286e fbbc 2379 afbb 302c 593c 6e08 5ebc
00000160: cc47 20bd 4e83 51bc a62c a4bc e04e ec3c
00000170: 0529 153c e88a 4c3d 054b f03a 4703 713b
00000180: a7c5 c83c 6f6f 7a3d 8937 c63d 740a 893d
00000190: 6380 c23d 3264 853c 5d01 b23c 8da7 313d
000001a0: 53e0 73bd 8cb0 26bd a456 fdbc dbc5 03bc
000001b0: 798f 6b3c 0445 ecbc ab0f 78bc 5e73 f4bc
000001c0: 04c3 09bd 14b2 a8bc f781 d2bc fd74 fbba
000001d0: fb26 96bc 2f54 17bc b5bd f8bc dbc0 57bd
000001e0: 2301 29bd 4d55 16bd 3771 433d 8921 133c
000001f0: c4ea ee3c d51f ee3d ebc5 993d 522f bb3d
00000200: 730f c63d 491e 7e3d ce4b 5c3d 8396 043b
00000210: ecfd 00bd 9d20 c6bc fb58 83bd 7c01 6d39
00000220: e30a 6cbd 22ec 15bd 971c 2dbd 40fe b0bc
00000230: 36e3 95bc ff8e efbc 895b 183c 531c a13b
00000240: 7d80 89bc 4949 c1bc 326c 4dbd 4048 33bd
00000250: 43c5 df3c 719e 813d 76e4 1a3e 8524 8c3d
00000260: c4a3 cd3d d730 b53d a51b 6a3d 1871 043d
00000270: 2bab 4cbd 65aa 953c 1758 5b3b e11b f9bc
00000280: 7806 44bd f8ef 5ebd 954c 80bd a6c6 acbd
00000290: ad62 1fbd 2a62 70bd bffa 353b 80d0 e5bc
000002a0: 63ee efbc c3d4 ecbb b6e4 d73c 8e9c 06bc
000002b0: 185a a33c 7399 f3bb 70bf 10bd bfa1 5dbb
000002c0: 43a0 0f3c 62bb 6b3c 4683 ca3d 1590 d63d
000002d0: 95e9 8a3d db86 ad3d ba00 873d 470b 80bd
000002e0: cfe8 7ebd d7c5 28be 4089 07be b3a3 6abd
000002f0: 6732 12be c297 67bd 7fbc d6bd 0548 e0bd
00000300: 1a8d 30bd cae0 94bc d2b7 8dbc 7b3b 983b
00000310: 2af6 1abd dc81 c9bc ca31 7c3b 4136 bfbb
00000320: 23ce eabc 763c 913c df61 013d d45b 263c
00000330: 502d 473c 3707 a33d ae75 073e f2d1 533e
00000340: b0cc c23d fd11 823d 795f 72b9 6ece 4cbd
00000350: 719c 21be 97bd 34be 3ff3 1ebe 7e94 dcbd
00000360: f18f 06be c63d fdbd 19bf 37be 319f 23be
00000370: 3b91 29bd aaec 94bd d344 4fbc 8bda c7bb
00000380: 5e47 b93b 36fd 9bbc e2c6 a2bc 7e61 aebc
00000390: 337c d9bc cad4 2c3d 5b72 4f3d 5e5c ad3c
000003a0: 9d9a d03d 2e13 4c3e 0f14 1f3e 3434 203e
000003b0: 08a4 a03d d282 cebd 4891 e4bd 3a73 aabd
000003c0: 529f d7bd 6f86 20be 3b71 1abe 1039 30bd
000003d0: e06e 54bd 825b 4abd a89c 13be 4fad f5bd
000003e0: b3a9 c0bd 0f23 39bd 6732 46bd 5cc4 dabc
000003f0: ccd5 90bc e58e 12bc cc97 5ebc 5bcc e33c
-0.022733996 -0.037280202 0.0035524324 -0.008801868 -0.017668288 0.023388064 0.015940193 -0.008543951
-0.016537923 -0.024754962 0.0064885304 -0.0039855703 -0.021616643 -0.037451237 -0.027140396 -0.003482072
-0.034636557 0.017264606 -0.021935295 -0.02750857 -0.039878614 -0.035891734 0.013683054 0.015712086
-0.026194492 -0.035184167 -0.017452125 -0.042948797 0.0063402154 -0.03791859 -0.023962064 -0.013458054
0.024454968 -0.038601656 0.022110324 -0.038482215 -0.033229847 0.0063740914 0.023843924 0.0071398024
-0.0051349313 -0.02732447 -0.039751355 0.030486934 0.024776332 0.008815668 0.023691311 -0.027881915
-0.030619597 0.025011055 0.01669731 -0.03954909 0.021875693 -0.0066091022 -0.010578206 -0.04058595
0.023716489 0.023023834 -0.0076976717 -0.024888873 -0.00301335 -0.030907383 -0.038820446 -0.027202856
0.0006771884 -0.015235333 0.054913104 0.011746282 0.04056631 0.030244783 -0.003034938 0.010137768
0.051786743 0.015182499 0.040744103 0.001908197 -0.017924609 0.03885573 -0.0076131267 -0.019325307
0.02368165 -0.03143851 0.017458841 -0.038617983 -0.030692175 -0.005355017 0.013255164 -0.0135518145
-0.03913097 -0.012787653 -0.020040821 0.028846204 0.009104018 0.04993716 0.0018332904 0.0036775635
0.02450831 0.061141428 0.09678561 0.06691447 0.09497144 0.016283128 0.021729166 0.04337268
-0.059540104 -0.040695712 -0.030925103 -0.008042778 0.014377468 -0.028841503 -0.015140454 -0.029840168
-0.033633247 -0.020592727 -0.025696738 -0.0019184645 -0.018329134 -0.0092363795 -0.030363897 -0.052674156
-0.04126085 -0.036702443 0.047715392 0.008980163 0.02916468 0.11627165 0.07508453 0.09139885
0.096709155 0.0620406 0.05378323 0.0020231314 -0.03149216 -0.024185473 -0.06413456 0.00022602634
-0.05762757 -0.036602147 -0.042263594 -0.02160561 -0.01829682 -0.02924299 0.009299167 0.0049167066
-0.0167849 -0.023594515 -0.05015201 -0.043770075 0.027315741 0.063290484 0.15126213 0.06842903
0.100410014 0.08847206 0.05715527 0.032334417 -0.049967926 0.018269727 0.0033469254 -0.030408802
-0.04785773 -0.05442807 -0.06264607 -0.08436327 -0.038912464 -0.058687367 0.0027767865 -0.028053522
-0.029288476 -0.0072275116 0.026354175 -0.0082160365 0.019940421 -0.007434064 -0.03533882 -0.0033818332
0.008766237 0.014387937 0.0988832 0.104767 0.067828335 0.08472987 0.065919355 -0.06252151
-0.062233742 -0.1648172 -0.1323595 -0.057285022 -0.1427704 -0.056541212 -0.104851715 -0.10951237
-0.043103315 -0.018173594 -0.017299566 0.0046457625 -0.037832417 -0.024598055 0.0038481825 -0.005835325
-0.028662747 0.017729025 0.031587478 0.0101537295 0.012156799 0.079603605 0.13228485 0.20685557
0.09511697 0.06351087 -0.00023114485 -0.050001554 -0.15782334 -0.17650448 -0.15522479 -0.1077051
-0.13140847 -0.12365298 -0.17943992 -0.15978695 -0.04139827 -0.072717026 -0.012650686 -0.0060990504
0.0056542596 -0.019041639 -0.019870225 -0.021286722 -0.02654848 0.04219512 0.050646167 0.021162208
0.1018574 0.19929191 0.15534995 0.15644914 0.078437865 -0.10083546 -0.11160523 -0.08322759
-0.10528435 -0.15676282 -0.15082256 -0.04302317 -0.05186355 -0.049403675 -0.14415228 -0.119959466
-0.094073676 -0.04519945 -0.04838791 -0.02670496 -0.017680071 -0.0089452015 -0.013585996 0.027807405

fc1.bias f4 [128]
00000000: 3597 ab3b 2332 803b 96ba da3c 7c5c f0bc
00000010: 1a9a 123c 7f21 f4bb ace4 033c 34fc a23c
00000020: 60fb f2bb d1a1 f53c 5109 9c3c 51c9 dfbb
00000030: dd2d e5bc a8a7 0cbd b1b2 f9bc 31ae cabc
00000040: 956c 393c 8d70 26bc 2bc1 38bd 965a 923c
00000050: 2ef6 a5bc 19a5 793c 8c1c 483c c5db dfbc
00000060: c592 063c 0b47 273c 3a3d 4339 16d8 bcbc
00000070: 2a3f 133c c16c 90bb 5a1b b43b f5ff c0bc
00000080: dcab 39bc 4c42 7b3c 031d c73b 17e0 c73b
00000090: 28f2 ec3c 5783 89bc 72d1 f33c 213e ca3c
000000a0: c114 7e3c 8ced 753c 6843 ca3c 2130 25bb
000000b0: 16d9 81bb 006b 35bc 2713 3fbd a22e 953c
000000c0: 8a74 ab3c 94e8 c9bc d425 e3bc df7d fa3c
000000d0: 0e36 06bd f88e 023d 6dde 19bc 213f 24bd
000000e0: 483f f13b 52eb 9abc 4983 023d 6295 84bc
000000f0: 4ade 093c 99cd 8cbc bc4c 0abc 4e12 793c
00000100: 7313 77bc 547d cc3c 263d dc3c 3b3c fb3c
00000110: 5d90 a5bc 0b53 24bd ba44 59bc f473 fe3c
00000120: 5555 cb3c 74af 723c cec2 18bd 30cc e13b
00000130: 0029 8cbc c37c d73c be98 11bc ea6b 1c3d
00000140: c865 c6bc 9761 683c a1af 523c 5d3d a63c
00000150: 63b0 02bd 11e3 1c3c 966b d9bb 1902 93bc
00000160: 5516 81bc c2ce 9d3c 1389 10bd f769 793c
00000170: afeb a4ba fef3 99bc bee0 b4bc 931d 11bd
00000180: 2a5e 1bbd 2e83 09bd 8041 b7bc ac2b 87bc
00000190: 5dba 02bc 17d3 a93c 3ce1 34bd f3ac 9b3b
000001a0: 24a6 20bd a2b6 1cbd 983b 95bc 9fff 8b3c
000001b0: 7e28 233d 8e5d 9f3b 178e 4cbd c6bf b9bc
000001c0: 0436 8c3c 59b0 893b e611 29bc 515d 593b
000001d0: 6c99 b53b af91 0d3d edb3 33bc b90a bcbc
000001e0: 0f1c 0bbd 2266 adba 6570 c03c 9d08 12bc
000001f0: fa25 bdbc 5395 49bc 09a0 c2bc 132c eebc
0.005236531 0.0039122268 0.0267003 -0.029340975 0.0089478735 -0.007450282 0.008050125 0.01989565
-0.00741522 0.029984387 0.019047411 -0.0068294187 -0.02797597 -0.034339577 -0.030480715 -0.024741264
0.011317392 -0.01015867 -0.045106094 0.01786546 -0.02025899 0.015237116 0.012213837 -0.027326474
0.0082137035 0.010209809 0.00018619458 -0.023052257 0.008987227 -0.0044074957 0.0054964246 -0.02355955
-0.011332478 0.015335631 0.0060764565 0.0060997116 0.028924063 -0.01678626 0.029762957 0.024687828
0.015507878 0.015010249 0.024690345 -0.002520569 -0.0039626462 -0.011072874 -0.046649124 0.018210713
0.020929594 -0.024647035 -0.027727999 0.030577598 -0.032766394 0.031874627 -0.009391409 -0.040099267
0.00736228 -0.018911038 0.031863485 -0.016184513 0.008414814 -0.01718788 -0.008441146 0.015202118
-0.015080321 0.024962105 0.026884627 0.030668369 -0.02021044 -0.04011826 -0.013261015 0.03106115
0.024820963 0.014812339 -0.037295155 0.006890796 -0.017109394 0.026304608 -0.008886514 0.038188852
-0.024218455 0.0141834235 0.012859256 0.020292932 -0.031906497 0.009575621 -0.0066351397 -0.017945336
-0.015757719 0.019263629 -0.035286974 0.015223018 -0.0012582446 -0.018793102 -0.022079822 -0.035428595
-0.0379316 -0.03357237 -0.0223701 -0.016500317 -0.007979003 0.020730538 -0.044160113 0.0047508418
-0.039220944 -0.03826011 -0.018216893 0.017089663 0.03983354 0.0048634475 -0.049940195 -0.022674453
0.0171156 0.0042019305 -0.010319209 0.0033167193 0.005541971 0.034562763 -0.010968191 -0.022954332
-0.033962306 -0.001322929 0.023491094 -0.008913186 -0.023089398 -0.012303668 -0.023757951 -0.02907375

fc2.weight f4 [64, 128]
00000000: fc0e a63b 9ae9 5a3d 5fa5 223c c791 963d
00000010: 635e 29bd f710 07be 3ed6 6b3d bc21 d6bd
00000020: aeed 633d 44d9 80bd a04d 293b c55b 48bd
00000030: 5059 b13c b26b 423d 492f a73d 9e7d 993d
00000040: d76a 4d3c 60e6 adbc be94 efbd 67ed acbd
00000050: 1bc9 d43c c039 053d ec9b 063d 4ccd 063d
00000060: f63a de3c f430 973d d22d c5bc 6c07 dbbc
00000070: dd32 dc3d a2ea e63c 27fd 96bd 5fa4 803d
00000080: 2980 643d 9231 1f3b e018 3f3e 1559 53bd
00000090: 3b7f 883d 17b4 ae3d c5ea 1dbc 344b ecbd
000000a0: bb76 60bc 4ea7 883d 80dc 1bbd 913e be3b
000000b0: 6756 4cbd f632 1ebd 138b a53d 5da7 9b3d
000000c0: 128c 1f3d e13c afbd 2774 61bd 4cb7 9a3d
000000d0: 5012 a03d 61dc 96be 6c46 a63d c882 63bd
000000e0: eec9 62bd 9a17 11bd d223 373c 2cd7 b7bd
000000f0: 3a31 32bd 1764 30bd 5c90 d0bc d693 d5bd
00000100: 384c fe3d 1e2d 933d 069f 043d b259 c9bd
00000110: 47ce c0bc 92d5 80be cf1c 87bb cc24 ca3c
00000120: a195 9dbd 1dd8 a73d 7ad1 af3d 866e 0a3d
00000130: 8f98 133e bd9e 41bd a5dd e0bc f577 ad3d
00000140: cd33 60bd 38ed 9fbd ae76 5b3d 9a7c 67bd
00000150: 55cd aa3d 1255 dabd 9786 013e 2b94 943d
00000160: 0bd5 dd3d 17b5 47bd a493 aebd dc79 9dbd
00000170: 5b28 3a3d 9920 ba3d 20a7 3f3b 3582 a3bd
00000180: ca64 3cbb 438c 8b3d 0bb9 48be 94a5 3cbd
00000190: 7b78 80bc 2f52 e4bd 9ce2 183d f8d6 b3bd
000001a0: 4ba6 803d 236a 9fbb 7207 6f3d 3b3f 29bd
000001b0: 7c01 1ebd e77a 1f3d 2f42 ec3d e08f b83b
000001c0: f228 91bd c907 4bbd fe19 5b3d 3e77 593c
000001d0: 310f 963d 1d9b 25be f016 183c d2f7 903d
000001e0: cbb6 793c b402 d33d 6f98 7abd 9fd0 783d
000001f0: 4d31 493d cf9a 8c3b 7e17 673c cef3 473d
00000200: 1549 9d3c efb2 bbbc bbe7 603d b1b7 abbd
00000210: 19fb 45bd c859 3ebd 708f 0e3c 7031 063d
00000220: 30eb a73c 524c 2c3d c4c7 583d e8fa 703d
00000230: 272b 7dbd ff6d 9dbe 927a 72bd 30d6 05bc
00000240: 77ec 73be ef1d 3d3b b0ff 503e 18fe 93bd
00000250: 9b52 363c 9ceb 033a 6f68 fc3d 3e19 25be
00000260: 01e0 473d ad3c 6f3d 5255 a8bd 02d2 003e
00000270: 1407 7abe b027 453e ba86 88bd 71b8 1c3d
00000280: 6751 8e3d e49e 17bd ac90 2e3b 413b 30ba
00000290: 2888 043d 8deb 05bd 96f7 103c 6c83 ba3d
000002a0: bc31 c6bc f8ab 743c bd67 8dbd 0327 5ebe
000002b0: cd3c dabb 5162 fc3c 5669 38be 600d f43c
000002c0: bde1 3a3d e9e8 07be c0a5 623d 0a9a d6bd
000002d0: c48d 8dbe 3ac5 82be d7f6 063c e8bc 0ebc
000002e0: 0f75 7c3d 253b 9dbc f35f 193d 2157 95bd
000002f0: 7a32 4dbe 5050 2f3e d6a2 45bd 9e3f 633d
00000300: bc61 98bd faa6 e5bd 7a61 6d3c 0da1 86be
00000310: c1df e93c e990 f9bd 1332 1abd e21d c93c
00000320: 4527 84be e7b4 bbbd 61c9 28bc 776f b63d
00000330: 273a 0c3e 5c35 0ebc 8bb5 5c3e 1af5 d9bc
00000340: 74d7 3c3d 692b 5a3d 00c8 d63b 2476 853d
00000350: 7490 82bd 1e08 55bd 46a3 de3d 6ce4 6abe
00000360: de05 37bd 19f9 923d ab27 803d d1fd 08bb
00000370: 545e 113d fa5b aa3d 5a23 563d 8216 fbbb
00000380: 3cb5 5abd 25d0 a6bd f01a 12bd 195a 56be
00000390: 816b efbd 859b f33d dad5 803b aa66 31bd
000003a0: 8770 6abd fbef 4ebd c42a 11bd 5d48 6ebd
000003b0: b3e8 ad3d bc83 843d 819e 413e 25d4 b33d
000003c0: be20 093d ab61 b23d a068 13bc b969 e5bc
000003d0: f435 423d 2dc7 89be 9ceb 9ebd be57 67bd
000003e0: 5675 24bd aca6 08be b007 3fbe bed4 16be
000003f0: 67bc acbd 8bcd 8ebd ce8b f43a 6487 843c
0.0050677042 0.053445436 0.009927123 0.073520236 -0.04134978 -0.13190065 0.057577364 -0.10455653
0.05564659 -0.0629144 0.0025833622 -0.048915643 0.021649033 0.047465988 0.08163316 0.07494663
0.01253768 -0.021228015 -0.11698292 -0.084437184 0.0259748 0.032525778 0.032863542 0.03291063
0.027127724 0.07382384 -0.0240697 -0.026736937 0.10751889 0.028188054 -0.07372504 0.06281351
0.055786286 0.002429102 0.18661833 -0.051598627 0.06664892 0.08530443 -0.009638493 -0.11537781
-0.013700183 0.06672536 -0.038052082 0.0058057983 -0.049887087 -0.03862282 0.08083167 0.076002814
0.03895194 -0.085565336 -0.055042412 0.07554492 0.07815993 -0.2946501 0.08118901 -0.055544645
-0.055368356 -0.0354229 0.011177974 -0.08976588 -0.043503977 -0.043064203 -0.02545946 -0.10428588
0.12416881 0.0718634 0.03237822 -0.09831561 -0.02353586 -0.2516294 -0.0041233073 0.02467575
-0.07694555 0.08195517 0.08584876 0.03379681 0.14413665 -0.047270525 -0.027449438 0.084701456
-0.0547369 -0.07808918 0.05357998 -0.056515314 0.08339945 -0.10660757 0.12648998 0.07254823
0.1083165 -0.048756685 -0.08524254 -0.076892585 0.045448642 0.09088249 0.0029243901 -0.079838194
-0.0028746598 0.06813862 -0.19601838 -0.046056345 -0.01568245 -0.11148488 0.037325487 -0.087812364
0.06281718 -0.0048649474 0.05835671 -0.041320067 -0.038575634 0.03893557 0.11536061 0.0056323856
-0.07087888 -0.04956797 0.053491585 0.013273058 0.07327116 -0.16172452 0.0092828125 0.07078518
0.015241335 0.1030325 -0.06118053 0.06074583 0.049119283 0.0042909156 0.014104722 0.048816495
0.019199887 -0.02291247 0.054908495 -0.08384646 -0.04833517 -0.04647234 0.00870119 0.03276199
0.020497888 0.042064972 0.052924886 0.058833033 -0.06180873 -0.30747983 -0.059198923 -0.008168742
-0.23820673 0.0028856953 0.20410037 -0.07226199 0.011128093 0.0005032362 0.123246066 -0.1612291
0.04879761 0.058407474 -0.082193986 0.12580112 -0.24416763 0.19253421 -0.06666322 0.038261835
0.0694912 -0.037016764 0.0026636524 -0.00067226967 0.03235641 -0.03269534 0.008848092 0.09107098
-0.024193637 0.014933579 -0.06904552 -0.2169457 -0.00666008 0.0308086 -0.18008932 0.029791534
0.045625437 -0.13272442 0.055333853 -0.10478599 -0.2764722 -0.25541097 0.008237562 -0.008712031
0.061635073 -0.019193241 0.03744502 -0.07292009 -0.20038787 0.1712048 -0.048250996 0.055480592
-0.07440516 -0.11213489 0.014488572 -0.26294747 0.028549077 -0.121858425 -0.03764541 0.024550382
-0.2581121 -0.09165364 -0.010301919 0.08907979 0.13694058 -0.008679714 0.21553628 -0.026606131
0.04610391 0.053264055 0.0065546036 0.06516674 -0.063752085 -0.052009694 0.10870986 -0.22938699
-0.04468333 0.07176418 0.06257566 -0.002090324 0.03549035 0.083183244 0.052279808 -0.0076625952
-0.053395495 -0.08145169 -0.03567022 -0.20932807 -0.116904266 0.11894897 0.003931743 -0.0433108
-0.05723622 -0.050521832 -0.035441175 -0.05817448 0.084916495 0.06470439 0.1890812 0.08780698
0.03347849 0.08710035 -0.0089971125 -0.028004514 0.047414735 -0.26909772 -0.07759783 -0.05648016
-0.040150963 -0.1334483 -0.18655276 -0.14729592 -0.084343724 -0.06972798 0.0018657388 0.01617784

fc2.bias f4 [64]
00000000: 25a0 6e3d 21ca 363d 73c8 9f3c eacf de3d
00000010: 15a9 093d 04cf 413d 938f 1bbd f27a 05bc
00000020: 1870 49bd 90cc 8cbc e18f c83c f43c ae3c
00000030: d2e6 bb3d 8b6f c73b 0e9c c63c 88ab 5c3c
00000040: 5aa8 20bc 2d6b 513d 0c0b fd39 c8c9 57bd
00000050: 6db8 a13b ef72 bd3c c450 923d f3aa 3fbd
00000060: 2925 eebc 2eec 1dbd ce16 42bd 74dc 553d
00000070: a12e 72bd 9277 73bd ae13 ab3d fae8 bdbd
00000080: 7013 ad3c dbb9 6fbc 203e 25bc dca5 523d
00000090: 6594 4f3d 94e4 2fbd 91f4 8abd 200f 10bd
000000a0: f484 f2bb d28c 95bc a41c ce3b 7898 c539
000000b0: 0947 8fbd 846a b63d 26c1 c43d 4413 d13c
000000c0: b228 0bbd b7ec 4f3c 9690 16bd 6aa5 d43b
000000d0: 6c46 97bd 2278 47bd cd73 cd3c d71a 9cbd
000000e0: ee7a 0bbd 8fd5 bebd 5659 243c 0dc9 dcbc
000000f0: 3245 fbbb c7f8 6dbd c765 b03d b321 4a3d
0.058258194 0.04462636 0.019504761 0.108795 0.033608515 0.047316566 -0.03797872 -0.008146988
-0.049179167 -0.017187387 0.02448267 0.0212693 0.09174885 0.006086295 0.024244335 0.013468631
-0.009805763 0.0511276 0.0004826415 -0.052682668 0.0049353153 0.023126094 0.07144311 -0.04679389
-0.029070454 -0.038555317 -0.04738503 0.052212194 -0.0591265 -0.059440203 0.08353363 -0.092729524
0.021127433 -0.014631714 -0.010085613 0.051427707 0.05067863 -0.0429426 -0.067849286 -0.035170674
-0.007401103 -0.018255625 0.0062900353 0.00037688366 -0.06995971 0.08907035 0.09607153 0.025521882
-0.033974357 0.012690715 -0.03675898 0.0064894455 -0.07386479 -0.048698552 0.025079632 -0.07622307
-0.03405278 -0.09318077 0.010031065 -0.026951337 -0.007668161 -0.05809858 0.086131625 0.049348544

fc3.weight f4 [10, 64]
00000000: 5c2b ddbd e62e fbbd 670a a83d 09d7 883d
00000010: f5bc bdbe abaa 1b3b c4ab 24be 4370 06be
00000020: f7a8 a2bd aa60 993d 67b1 9fbe acc6 c6be
00000030: 1fe6 b03c d9c2 d6bd e379 89be 7486 5f3e
00000040: 8632 a23c 2bff 4fbe bd42 17be 1ca3 61be
00000050: a61a 52bd a4e9 053e 88f2 d7ba 04cb 4f3e
00000060: 1ae1 8ebe 5a56 ec3c 9d7e 733e cbe3 1bbe
00000070: 7f2e ab3d dfae 1a3d 1d8b c1bd 48e9 df3c
00000080: 92c0 903d 50f0 673d 2170 433d 79ce b9bd
00000090: 6567 e03d 5765 713e 9ff1 8e3d 9baf 9bbe
000000a0: 1cb2 f13d ae7d d7bd 26c1 133e feb6 eb3c
000000b0: 56d3 633e bed6 0cbe 49f4 693d 581a 95bc
000000c0: f937 26be 23b6 68be 03ce ebbd cea0 943d
000000d0: 58c1 16bd 4b79 88bd 4c2b c4bd 1046 943d
000000e0: 75f3 dabd 097e 8ebd a1a6 6abe e4d8 abbc
000000f0: 98a1 36be 2580 9dbd 3e48 253e 84fe e53d
00000100: a65b 83bd 6029 3bbe ad05 c33e e862 a83c
00000110: c4d2 4e3e 81ad df3d cb9b 393e cb60 4abe
00000120: b5d5 3dbd be11 bb3b 17d6 51be bbd2 f73d
00000130: 5c95 6dbe 1a2e 9bbc 3237 a63c 57f0 76be
00000140: 3a9c abbe 0839 d93d f347 32bd 6bdb 12be
00000150: c090 283e ba0b 333e bcf3 a4be 1907 6cbe
00000160: 5422 92bd 485f b53d a177 383d 4013 213e
00000170: 46e2 b83d f066 df3d 1ded 13be 8a1a e03d
00000180: bec8 a63d b471 c03b ba23 513e 73e8 51bb
00000190: 73b0 6bbe 6b79 2cbe ab97 32bd a58b 11bd
000001a0: 0819 94be 2439 6cbe fd1f 8bbe 6ebf 14be
000001b0: 8651 ba3d 5728 8abc 6d40 1bbd 4469 953e
000001c0: c721 b4bd f4a2 043e 3f39 553e 78df d23d
000001d0: 5e5a b13d 48cf d1bd 2bbe ae3d 79ac 2bbd
000001e0: b040 203d 4e5f 25bd 8d7a d4be c63c ddbb
000001f0: db73 073e b74a f93d 926d 8c3d 19fc da3d
00000200: 3b7c a5bd 64b9 0bbd 485f 99bc 7582 2abe
00000210: 7d64 ef3d 3657 3d3c b6e4 a0be d25e 29bd
00000220: 5eaf f4bd e519 6f3d d2eb 6b3e df6f 693d
00000230: dab7 dabd db05 b2bd 268c 39be 4182 f03d
00000240: 9ea0 14bd d011 2dbd a181 11bd 8980 b2bd
00000250: 286e be3d cd9e 823d e41d a9bd 8db2 24bd
00000260: 9c34 19be 7540 5c3d 08bc 0ebd a076 b0be
00000270: f859 dc3d 0694 4abc 0a11 4d3d 4d51 ff3d
00000280: a408 f63d 61bf 1b3d ed88 063e 4f7c 0d3e
00000290: 9397 093d a1f4 9bbd 3717 aa3d 7e31 e1bd
000002a0: 16cd e6bc 99a5 d4bd 4646 c8bd 1557 0f3e
000002b0: 9cad 0bbe c5b0 07bc ad68 7d3d 6c42 c0bc
000002c0: 8cc7 d9bd 844a 1d3e 25fc 163e 463c 97be
000002d0: 2501 eb3c 6cb4 403e 06e5 50bb 3636 1abd
000002e0: c102 2d3d b6be db3c b9d7 20bc 195e fb3c
000002f0: c717 003e 4fb4 0e3e e7fa 683d 8fdf 3dbe
00000300: 9963 9fbe 265c 8dbc a91d 843d e4a7 bf3d
00000310: 1997 88bd e9db 843d e9f0 90be d2f4 86bd
00000320: d83e 00be 6ab2 10be 3006 a23c dc05 4f3e
00000330: 18c8 013d 3b79 8abd 5b29 4a3e 6a31 98bc
00000340: e716 3fbd 9596 ab3d 46bf f4bc c47a 0a3c
00000350: 3639 3f3d e438 1dbe b50d 1f3e ed45 59bd
00000360: abf2 1d3e 9a64 0b3e 43d9 143e b614 11be
00000370: afe8 debe 4727 613c 64ea 36be 28d9 b03d
00000380: 56ed 8fbe d826 33bc 8b35 73be 7966 24bc
00000390: ed49 fabd 4e20 5ebe 034f d23d 28c7 87bd
000003a0: 0086 b93d d6bc 41be 5bee 123e 0f1d babc
000003b0: f8d1 e3bd 7fd6 a93d 4011 0a3e 85e1 2fbd
000003c0: 8e9c 313e b146 8ebd 8050 c73d abac 0dbe
000003d0: c3af a33d 0f66 223a a4d4 ccbd 2cf1 4b3d
000003e0: 820c 9dbd 50a9 0a3d c99a da3b 6f2c 8c3d
000003f0: abb7 90be d737 9b3d f8db 86be 50f8 953c
-0.10799286 -0.122648045 0.08205109 0.0668164 -0.37058225 0.002375285 -0.16081148 -0.13128762
-0.07942384 0.0748914 -0.31190035 -0.3882345 0.021594105 -0.10486383 -0.26850805 0.21828634
0.019799482 -0.20312183 -0.14771552 -0.22034878 -0.051294945 0.13077408 -0.0016475478 0.20292288
-0.27906114 0.02884977 0.23778768 -0.15223615 0.08358478 0.037764426 -0.09450362 0.027332917
0.0706798 0.056625664 0.047714356 -0.09072585 0.10957221 0.23573814 0.06979679 -0.30407414
0.1180155 -0.105220184 0.14429149 0.02877378 0.22248587 -0.13753793 0.057117734 -0.018201038
-0.1623229 -0.2272573 -0.11513903 0.072572336 -0.03680548 -0.0666376 -0.09578571 0.07239926
-0.10690967 -0.06957633 -0.22915126 -0.020977445 -0.1783508 -0.07690457 0.1614084 0.11230186
-0.06413965 -0.18277502 0.38090268 0.020554975 0.20197588 0.10921765 0.18125837 -0.19763486
-0.046346385 0.005708902 -0.20491825 0.121007405 -0.23201507 -0.018942881 0.020289991 -0.2411512
-0.3351763 0.10606581 -0.043525647 -0.14341514 0.16461468 0.17484942 -0.32217205 -0.23049583
-0.07135454 0.08856064 0.045035962 0.1573 0.09027533 0.10908306 -0.1444592 0.10942562
0.08143757 0.0058729295 0.20423785 -0.003202942 -0.23016529 -0.16843192 -0.043601673 -0.035533566
-0.28925347 -0.23068672 -0.27172843 -0.1452615 0.090975806 -0.016864939 -0.037903238 0.29181874
-0.08795505 0.12952787 0.20822619 0.102965295 0.08659814 -0.10244614 0.085323654 -0.04191253
0.03912419 -0.040374093 -0.4149975 -0.0067516295 0.13227789 0.12172454 0.068568364 0.10692615
-0.08080336 -0.03411235 -0.018722191 -0.16651328 0.116890885 0.011556437 -0.31424493 -0.041350193
-0.11947511 0.058374304 0.23039177 0.056991454 -0.10679598 -0.08692523 -0.18119869 0.11743594
-0.03628599 -0.042253315 -0.035524014 -0.087159224 0.092983544 0.06377945 -0.08257654 -0.04020934
-0.14961475 0.05377241 -0.03484729 -0.34465504 0.10759348 -0.012364393 0.050065078 0.12466679
0.12013367 0.03802431 0.1313817 0.13816951 0.033591818 -0.07615019 0.08305209 -0.10995768
-0.028173964 -0.10383148 -0.097790286 0.13998063 -0.13640445 -0.008281891 0.061867405 -0.023469172
-0.10633764 0.15360457 0.14744623 -0.29538172 0.02868707 0.18818825 -0.003187479 -0.037649356
0.042238954 0.026824336 -0.009817057 0.030684518 0.1250907 0.1393597 0.056879904 -0.18542312
-0.31130674 -0.017255854 0.0645097 0.093581945 -0.066694446 0.06487257 -0.283088 -0.065896645
-0.12523973 -0.1413056 0.019778341 0.20217079 0.031684965 -0.06761404 0.19742338 -0.01857825
-0.0466527 0.083783306 -0.029876363 0.008452121 0.04668542 -0.15353733 0.15532573 -0.053045202
0.15424602 0.13612595 0.14536004 -0.14168057 -0.43536898 0.013742275 -0.1786285 0.08635169
-0.2811076 -0.010934554 -0.23750894 -0.010034197 -0.122211315 -0.21692011 0.102689765 -0.06629783
0.090587616 -0.18919691 0.14348738 -0.022718934 -0.11124033 0.08292865 0.13483143 -0.04293968
0.17344877 -0.06947077 0.09732151 -0.13835399 0.07992508 0.00061950175 -0.100014955 0.049790546
-0.07668401 0.033852875 0.006671284 0.068444125 -0.28265128 0.0757901 -0.26339698 0.018306881

fc3.bias f4 [10]
00000000: 1446 17be f61c 9bbc 193a ab3d a601 b53d
00000010: 51a0 833d b3db 6c3d d863 58bb caf7 b9bd
00000020: e0b3 6b3c 9091 f93d
-0.14772826 -0.018934708 0.083606906 0.08838205 0.06427062 0.05782671 -0.0033018496 -0.09080465
0.014386147 0.12185967
